…
\u670950%\u7684\u53ef\u80fd\u6027B\u662f\u7d27\u968fA\u540e\u7684\u771f\u6b63\u4e0b\u4e00\u4e2a\u53e5\u5b50(\u6807\u8bb0\u4e3aIsNext),\u800c\u53e6\u591650%\u7684\u53ef\u80fd\u6027\u5b83\u662f\u8bed\u6599\u5e93\u4e2d\u7684\u4e00\u4e2a\u968f\u673a\u53e5\u5b50(\u6807\u8bb0\u4e3aNotNext)\u3002</p>"},{"location":"%E8%AE%BA%E6%96%87%E9%98%85%E8%AF%BB/2018-bert/#2","title":"2.\u53cc\u5411\u7f16\u7801\u5668","text":""},{"location":"%E8%AE%BA%E6%96%87%E9%98%85%E8%AF%BB/2018-bert/#a","title":"a.\u6a21\u578b\u7ed3\u6784","text":"<pre><code>BertModel(\n  (embeddings): BertEmbeddings(\n    (word_embeddings): Embedding(21128, 768, padding_idx=0)\n    (position_embeddings): Embedding(512, 768)\n    (token_type_embeddings): Embedding(2, 768)\n    (LayerNorm): LayerNorm((768,), eps=1e-12, elementwise_affine=True)\n    (dropout): Dropout(p=0.1, inplace=False)\n  )\n  (encoder): BertEncoder(\n    (layer): ModuleList(\n      (0-11): 12 x BertLayer(\n        (attention): BertAttention(\n          (self): BertSelfAttention(\n            (query): Linear(in_features=768, out_features=768, bias=True)\n            (key): Linear(in_features=768, out_features=768, bias=True)\n            (value): Linear(in_features=768, out_features=768, bias=True)\n            (dropout): Dropout(p=0.1, inplace=False)\n          )\n          (output): BertSelfOutput(\n            (dense): Linear(in_features=768, out_features=768, bias=True)\n            (LayerNorm): LayerNorm((768,), eps=1e-12, elementwise_affine=True)\n            (dropout): Dropout(p=0.1, inplace=False)\n          )\n        )\n        (intermediate): BertIntermediate(\n          (dense): Linear(in_features=768, out_features=3072, bias=True)\n          (intermediate_act_fn): GELUActivation()\n        )\n        (output): BertOutput(\n          (dense): Linear(in_features=3072, out_features=768, bias=True)\n          (LayerNorm): LayerNorm((768,), eps=1e-12, elementwise_affine=True)\n          (dropout): Dropout(p=0.1, inplace=False)\n        )\n      )\n    )\n  )\n  (pooler): BertPooler(\n    (dense): Linear(in_features=768, out_features=768, bias=True)\n    (activation): Tanh()\n  )\n)\n</code></pre> <ul> <li>BertEmbeddings\uff1a\u8be5\u5c42\u5bf9\u8f93\u5165\u8fdb\u884c\u5d4c\u5165\uff08embedding\uff09\uff0c\u5305\u62ec\u5355\u8bcd\u5d4c\u5165\uff08word_embeddings\uff09\u3001\u4f4d\u7f6e\u5d4c\u5165\uff08position_embeddings\uff09\u548c\u6807\u8bb0\u7c7b\u578b\u5d4c\u5165\uff08token_type_embeddings\u
…
